checkpoint/sdd/best.pth (torch, 474786 bytes, 59 tensors)

embedding.weight f4 [64, 40]
0	0x3da0e609	0.07856376
1	0xbd94e0df	-0.07269453
2	0xbd0974d2	-0.033558674
3	0x3d920987	0.071307234
4	0xbe1b672e	-0.15176079
5	0x3dbc3f0a	0.09191711
6	0xbd1123c8	-0.035434514
7	0x3d9ec99a	0.07753296
8	0x3c9c411f	0.01907402
9	0xbcb6687b	-0.022266617
10	0x3d27b939	0.040948126
11	0x3ba05a01	0.004893542
12	0x3d60a11f	0.054841157
13	0xbd8424f9	-0.064523645
14	0xbc6c7e3c	-0.0144343935
15	0xbc8c6b6e	-0.01714107
16	0x3ce8b2b6	0.028405529
17	0xbb1de0f5	-0.0024090384
18	0x3e11cca9	0.14238228
19	0x3d309e91	0.04311997
20	0xbd659e58	-0.05605921
21	0xbdd08e6a	-0.10183413
22	0xbcc6a9bd	-0.02425086
23	0xbd9528fb	-0.07283207
24	0xbd4ac360	-0.04950273
25	0x3b6fd929	0.0036597943
26	0x3dc31e5f	0.09527277
27	0x3da9ca05	0.08290485
28	0xbe1ce7df	-0.15322827
29	0x3dc3f958	0.09569043
30	0x3d390c3b	0.04517768
31	0x3e174b7a	0.14774886
32	0x3dd6ae65	0.10482482
33	0xbe15e5f3	-0.146385
34	0xbe19a02b	-0.15002505
35	0xbda1afd7	-0.07894867
36	0x3e0e5673	0.13900165
37	0xbceefe7c	-0.029174082
38	0x3d8b10e0	0.06790328
39	0xbd9d4225	-0.07678632
40	0x3e216eff	0.15764998
41	0xbd83dfe9	-0.06439192
42	0x3df7f86f	0.12107932
43	0x3b8f768e	0.0043781465
44	0xbda575ef	-0.08079135
45	0x3dab9429	0.08377869
46	0xbda6c1bf	-0.08142423
47	0x3d48bc76	0.049007855
48	0xbd30beca	-0.0431507
49	0xbc72f4ec	-0.014828902
50	0xbe191751	-0.14950301
51	0xbd95421c	-0.07288
52	0x3db4d89c	0.088303775
53	0xbd132950	-0.03592807
54	0x3e23d5be	0.15999505
55	0x3e04599a	0.12924805
56	0xbc5b4877	-0.013383976
57	0xbddb048f	-0.10694229
58	0x3dbebf63	0.09313848
59	0x3d590841	0.052986387
60	0xbdd674f6	-0.10471527
61	0x3ddc7251	0.107639916
62	0x3dbc5f66	0.09197883
63	0x3e137df0	0.1440351
64	0xbdbe8256	-0.09302203
65	0xbcc2e482	-0.023790602
66	0xbbf075ef	-0.0073382775
67	0x3cc6dc6a	0.024275023
68	0xbdfe6ab8	-0.12422699
69	0xbde470d9	-0.111543365
70	0x3da75300	0.08170128
71	0xbd16f560	-0.0368551
72	0x3d95762e	0.072979316
73	0x3c141250	0.009037569
74	0x3d409adb	0.04702268
75	0x3d0f23e8	0.034946352
76	0x3d5707d9	0.05249772
77	0x3da169ce	0.07881509
78	0xbe1b044e	-0.15138361
79	0x3da4605c	0.080261916
80	0xbdf268cd	-0.118363954
81	0xbe018643	-0.12648873
82	0x3b1ef056	0.0024252138
83	0xbd0bd039	-0.034134123
84	0x3daf75ad	0.08567367
85	0xbdca4294	-0.0987598
86	0xbe174bfb	-0.14775078
87	0x3ddcf028	0.10787994
88	0xbcfaf7ea	-0.030635793
89	0x3da76849	0.08174188
90	0x3d32c0ae	0.043640785
91	0xbe00c634	-0.12575608
92	0x3cc95050	0.024574429
93	0x3cfc372a	0.030788023
94	0xbde78a64	-0.11305693
95	0xbda85e47	-0.08221107
96	0x3d2e7199	0.042588804
97	0x3cabb02e	0.020958032
98	0xbd9d2d1d	-0.0767462
99	0xbd5fa9e7	-0.05460539
100	0x3e0c9f7d	0.13732715
101	0xbd047f58	-0.032348007
102	0x3da69907	0.081346564
103	0x3d8c1c01	0.06841279
104	0xbde21755	-0.110396065
105	0xbe08f807	-0.13375865
106	0x3e13bef5	0.14428313
107	0x3c117c0f	0.0088796755
108	0x3dd00543	0.101572536
109	0x3d072e47	0.033003118
110	0x3d3370b0	0.04380864
111	0x3df0b2da	0.11752863
112	0x3e121c07	0.14268504
113	0xbdd91ed7	-0.10601585
114	0x3c4012b4	0.011723209
115	0x3defda01	0.11711503
116	0x3dd711a9	0.10501415
117	0x3dc7eabf	0.09761571
118	0xbe01273a	-0.1261262
119	0xbdee12ac	-0.11624655
120	0xbddc6c5a	-0.10762854
121	0x3c00be2e	0.007857842
122	0x3e151323	0.14558081
123	0xbde5229e	-0.11188243
124	0x3d93f7de	0.07225011
125	0xbdcbd118	-0.09951991
126	0xbe2485dd	-0.1606669
127	0xbd3ad2d1	-0.045611206
128	0x3da1fc7d	0.079094864
129	0x3e0a049c	0.13478321
130	0xbde1b0db	-0.11020061
131	0x3cb6bca3	0.022306746
132	0x3dfed23f	0.12442445
133	0x3dbdfda9	0.092768975
134	0x3db138fa	0.086534455
135	0x3dcd86fc	0.10035512
136	0x3dc7fcb4	0.09764996
137	0x3cf5f79e	0.0300253
138	0xbdde4d3a	-0.108545735
139	0xbe114003	-0.14184575
140	0xbd90fb2f	-0.070791595
141	0xbcdf2d71	-0.027243348
142	0xbdc4d36f	-0.0961064
143	0x3d51ec9f	0.05125105
144	0x3d4e8cf6	0.0504274
145	0xbd2c200f	-0.04202276
146	0x3d818034	0.06323281
147	0x3d37542b	0.044758003
148	0x3dcb03e8	0.099128544
149	0x3dcc10ec	0.09964165
150	0xbd505de4	-0.05087079
151	0x3e14abdc	0.14518684
152	0xbc7a5608	-0.0152793005
153	0xbc76f38a	-0.015072713
154	0xbe1626e7	-0.14663278
155	0xbde48ebc	-0.11160037
156	0xbdb8c816	-0.09022538
157	0xbd9f4838	-0.077774465
158	0x3de96bea	0.11397536
159	0xbd7dacea	-0.06193248
160	0xbdd8979b	-0.105757914
161	0x3d95fa9d	0.07323191
162	0x3d81111b	0.06302091
163	0x3deb1fac	0.1148065
164	0xbd8e2d13	-0.06942191
165	0x3d3f3297	0.046679106
166	0xbd38fdaf	-0.045163807
167	0xbcbd73e8	-0.023126557
168	0xbde8aa64	-0.113606244
169	0xbd7462c3	-0.0596645
170	0xbd138ff3	-0.036025953
171	0x3da3ddb2	0.080012694
172	0x3d2918c4	0.041283384
173	0x3d52c1d2	0.051454373
174	0x3e2e4c09	0.17021193
175	0x3e2a7eea	0.16649976
176	0x3dc4355d	0.09580491
177	0x3c0b76d7	0.00851222
178	0xbdfb0f91	-0.122588284
179	0x3dff1240	0.12454653
180	0xbd5d96ae	-0.054098777
181	0xbc77de18	-0.015128635
182	0xbe19aa22	-0.15006307
183	0xbd0ff554	-0.035146073
184	0xbdeb0124	-0.11474827
185	0x3e10c321	0.14136936
186	0xbe187ee0	-0.14892149
187	0xbe017dea	-0.12645689
188	0xbc8f7267	-0.017510606
189	0xbdb3310f	-0.087495916
190	0x3d3650ab	0.044510525
191	0xbd7afc5b	-0.06127582
192	0xbdb07bb3	-0.08617344
193	0x3c25ea23	0.010126623
194	0x3dd2d15e	0.1029384
195	0xbddd5a8a	-0.108082846
196	0x3d832c70	0.0640496
197	0x3dd8a36b	0.105780445
198	0x3e15b6e0	0.14620543
199	0xbdd858e7	-0.10563832
200	0x3d4023bf	0.04690909
201	0xbdddcb65	-0.1082981
202	0x3e130d45	0.1436053
203	0xbd57eeb0	-0.052717865
204	0x3dd4b264	0.10385588
205	0x3c5a47d7	0.013322792
206	0xbb7267c8	-0.0036988128
207	0x3b69fe2b	0.0035704474
208	0x3d116229	0.035494003
209	0x3daa4a73	0.08314981
210	0x3d0b281c	0.0339738
211	0x3d68da6c	0.05684893
212	0xbe08d188	-0.1336118
213	0x3dfd8ec2	0.123807445
214	0x3e15fc10	0.14646935
215	0x3e0ea82b	0.13931338
216	0x3e0419be	0.12900445
217	0xbdcab7d1	-0.098983414
218	0xbd462ddd	-0.048383582
219	0x3e1c0f54	0.15240222
220	0xbde3c501	-0.1112156
221	0x3e1db91e	0.15402648
222	0xbdead58a	-0.114665106
223	0xbdd0a3e8	-0.10187513
224	0x3db1aea5	0.08675889
225	0xbdd3ad46	-0.10335784
226	0xbce40a82	-0.027837042
227	0x3e00f731	0.12594296
228	0x3e077960	0.13229895
229	0x3e24ac95	0.1608146
230	0xbcd3a663	-0.025836175
231	0xbde3b5f4	-0.11118689
232	0x3e252e40	0.16130924
233	0xbcb35c8d	-0.021894718
234	0xbd746cbb	-0.059674006
235	0x3d4d802c	0.050171062
236	0xbdd760cd	-0.1051651
237	0x3dec8db1	0.11550463
238	0x3dd5f135	0.10446397
239	0xbde91845	-0.11381582
240	0xbe06375b	-0.13107054
241	0xbc7695f7	-0.015050403
242	0x3d858db2	0.06521167
243	0xbbbd6212	-0.005779513
244	0xbda6a88f	-0.08137619
245	0x3b1e3f6b	0.0024146687
246	0xbe19697f	-0.1498165
247	0xbde751c2	-0.11294891
248	0xbdda0508	-0.10645491
249	0x3e041b93	0.12901144
250	0x3e0d7e92	0.13817814
251	0xbd60e55f	-0.054906245
252	0x3bc10b82	0.0058912644
253	0x3d8df516	0.06931512
254	0x3c915d1d	0.017744595
255	0xbda49c3c	-0.08037612

embedding.bias f4 [64]
0	0x3df9bdb9	0.1219439
1	0xbda9aa0a	-0.082843855
2	0xbc2c3222	-0.0105099995
3	0xbda2864e	-0.07935773
4	0xbe0229af	-0.12711214
5	0xbe076a86	-0.13224229
6	0xbde2c2bc	-0.11072299
7	0xbdd14a70	-0.10219276
8	0x3d5fec01	0.05466843
9	0xbd06c00e	-0.032898
10	0x3de6bf84	0.112669975
11	0x3de416c2	0.11137153
12	0xbdde6152	-0.10858406
13	0x3d06ec2c	0.032940075
14	0x3da2306d	0.07919393
15	0xbe080456	-0.13282904
16	0xbd7217bd	-0.05910467
17	0x3dd97222	0.10617472
18	0xbde2da78	-0.11076826
19	0x3e15160d	0.14559193
20	0x3c4bf0ba	0.01244753
21	0x3cc7b904	0.024380215
22	0x3e00e61a	0.12587777
23	0xbe0c7c32	-0.13719252
24	0x3e081a5c	0.13291305
25	0xbe076aed	-0.13224383
26	0x3da2f057	0.079559974
27	0xba8cdb98	-0.0010746596
28	0x3de065e9	0.10956938
29	0x3bd8a88b	0.0066118888
30	0xbe1d1b0e	-0.15342352
31	0x3c933c2f	0.017973034
32	0x3dd734ae	0.10508095
33	0xbcbb0095	-0.022827426
34	0xbe1d9f7f	-0.15392874
35	0xbc4ceded	-0.012507898
36	0x3c67fcee	0.014159424
37	0x3d16f1c2	0.036851652
38	0x3d4ce01a	0.050018407
39	0xbc81dc80	-0.015852213
40	0x3a2e7690	0.00066552404
41	0xbd0ba391	-0.034091536
42	0x3d794b79	0.060862992
43	0x3d148e16	0.036268316
44	0x3d6f8dd8	0.058484882
45	0xbc95c572	-0.018282626
46	0xbc4f87bb	-0.012666638
47	0x3de4809a	0.11157341
48	0x3cd15c0d	0.025556589
49	0xbe1280f2	-0.14307001
50	0x3d0a8fc5	0.033828516
51	0x3e15246d	0.14564677
52	0xbd269d29	-0.040677223
53	0x3db6c589	0.089243956
54	0xbdf55c0f	-0.119804494
55	0xbd117791	-0.035514418
56	0x3dd4c256	0.10388629
57	0xbdb79b1a	-0.0896513
58	0xbd2dd4fb	-0.042439442
59	0x3c2c2a6e	0.010508163
60	0xbc63ec3f	-0.013911306
61	0xbd4d7eef	-0.05016988
62	0x3de89d6e	0.11358152
63	0xbc8ebc22	-0.017423693

mode_encoder.layers.0.attn.w_key.weight f4 [64, 64]
0	0xbd258f63	-0.040419947
1	0x3dba5ce1	0.090997465
2	0x3ca2e3f8	0.019884095
3	0xbd4c3bc5	-0.04986169
4	0x3dabac1b	0.08382436
5	0xbd766ff5	-0.060165364
6	0x3dec5034	0.11538735
7	0x3de64d96	0.11245267
8	0x3cae658e	0.02128866
9	0x3d0a02b5	0.033693988
10	0xbd2bc407	-0.041934993
11	0xbdd74872	-0.10511865
12	0xbdb1a391	-0.08673776
13	0x3d44f942	0.048089273
14	0x3d71dcd6	0.059048496
15	0xbc3447af	-0.011003419
16	0xbd031343	-0.03200079
17	0xbd33e811	-0.043922488
18	0xbd8f8aef	-0.07008921
19	0xbd880dcf	-0.06643259
20	0x3d951004	0.07278445
21	0xbdccdcff	-0.10003089
22	0x3dba9cea	0.0911196
23	0x3d89b074	0.06723109
24	0xbd18e86f	-0.03733104
25	0xbc6ed792	-0.014577763
26	0xbd0baffb	-0.034103375
27	0xbdc72f75	-0.097258486
28	0x3c8e921a	0.017403651
29	0xbdc691de	-0.09695791
30	0xbb5f92d3	-0.0034114614
31	0xbd52ef25	-0.051497597
32	0xbdcd2b77	-0.10018056
33	0xbddb1b8d	-0.10698614
34	0x3de20f9f	0.11038136
35	0x3db796e6	0.089643285
36	0x3decff69	0.11572153
37	0x3d3cba00	0.04607582
38	0x3d81416c	0.06311306
39	0x3d5857d6	0.052818142
40	0x3da9ef88	0.0829764
41	0x3ce20510	0.027590305
42	0x3c4b0585	0.012391453
43	0x3dba847b	0.091073
44	0x3d4227c3	0.0474012
45	0xbd8c93e8	-0.068641484
46	0x3db22dc9	0.08700139
47	0x3e03385f	0.12814473
48	0xbd20bae8	-0.039240748
49	0xbdf4b26f	-0.11948096
50	0xbc9caaaa	-0.019124348
51	0xbdaa5492	-0.08316912
52	0x3e093ae6	0.13401374
53	0xbce257b5	-0.027629713
54	0xbd6082cb	-0.054812234
55	0x3db6b923	0.08922031
56	0x3d67c3a0	0.056583047
57	0x3ce258a6	0.027630161
58	0x3de709d9	0.11281175
59	0xbdf8e8a8	-0.12153751
60	0x3d8d385a	0.06895514
61	0xbd69a3e4	-0.057041064
62	0x3d4d4a9a	0.050119974
63	0xbd57084c	-0.052498147
64	0x3ded7844	0.115952045
65	0xbc8496a9	-0.016185122
66	0x3c6b31c1	0.014355124
67	0xbdcc1121	-0.099642046
68	0x3d97ff22	0.074217096
69	0xbdeb4d93	-0.114894055
70	0x3d8f4ee1	0.06997467
71	0x3db1e1ba	0.08685632
72	0x3dc8e050	0.09808409
73	0x3dae73e0	0.08518195
74	0xbd304c8b	-0.043041747
75	0x3ce1fb92	0.027585778
76	0x3cc26d4d	0.02373376
77	0xbdf88c34	-0.121361166
78	0x3d9ad80c	0.07560739
79	0xbdcc7b41	-0.09984446
80	0x3d323ab0	0.043513
81	0x3df616f8	0.120161
82	0xbcd1b8a3	-0.025600737
83	0x3c8055b8	0.015665874
84	0x3dedfd2c	0.11620554
85	0x3dce5551	0.100748666
86	0x3de901b6	0.113772795
87	0xbda0548d	-0.07828627
88	0x3d04519d	0.032304395
89	0xbde6d49c	-0.11271021
90	0x3ca9f19f	0.020745097
91	0xbdf5dd06	-0.120050475
92	0x3c3d1872	0.011541473
93	0x3d934629	0.07191116
94	0xbde365c7	-0.11103397
95	0xbc8cb99e	-0.017178353
96	0xbd342517	-0.043980684
97	0x3dcecccb	0.10097655
98	0xbcac7785	-0.021053085
99	0x3da39357	0.07987087
100	0xbdceba12	-0.10094084
101	0x3cdb1cc2	0.026747111
102	0x3db55ce3	0.08855607
103	0x3c150929	0.009096422
104	0xbd2c59fd	-0.042078007
105	0xbd59a543	-0.05313612
106	0x3dc17eac	0.09447989
107	0x3d28d1d5	0.041215736
108	0x3c221809	0.009893426
109	0x3d92dc22	0.07170893
110	0xbd94306f	-0.072358005
111	0xbdc6c068	-0.09704667
112	0xbcf5c551	-0.030001314
113	0x3dce8ba1	0.10085226
114	0xbe03aa83	-0.12858014
115	0xbd5a1913	-0.05324657
116	0x3cda503f	0.026649592
117	0x3d65b9f0	0.056085527
118	0x3d7a3855	0.06108888
119	0x3d14c3db	0.036319595
120	0xbde4e566	-0.11176567
121	0xbd1e160b	-0.03859524
122	0x3daedf82	0.085387245
123	0x3c595ec4	0.013267223
124	0x3d88ac3e	0.066734776
125	0x3dae8edb	0.08523341
126	0x3d8dde4a	0.06927164
127	0xbd4a9aa5	-0.049463887
128	0xbd6cc2d0	-0.057802975
129	0xbc61c3af	-0.013779565
130	0xbb0a1849	-0.0021071604
131	0xbc4a449f	-0.012345462
132	0xbcd215bf	-0.025645135
133	0x3cd5b896	0.026088994
134	0x3da3fd59	0.080073066
135	0xbdb3456e	-0.08753477
136	0x3d7e8227	0.06213584
137	0xbdeb177f	-0.11479091
138	0x3bbff395	0.0058578947
139	0xbde57ec4	-0.11205819
140	0x3de54539	0.11194844
141	0xbddd5216	-0.10806672
142	0xbd7a23cb	-0.06106929
143	0x3dab9682	0.083783165
144	0x3d82ed20	0.06392884
145	0x3dccd922	0.10002352
146	0x3d30b3b3	0.043140125
147	0xbde95bf8	-0.11394495
148	0xbdb1ce3a	-0.08681913
149	0x3dabd2de	0.08389829
150	0xbde612ea	-0.11234076
151	0x3df84f17	0.1212446
152	0xbc5c48f3	-0.013445127
153	0x3c674212	0.0141148735
154	0xbbeb0635	-0.007172371
155	0xbd08e37c	-0.03342007
156	0xbd04d66d	-0.032431055
157	0x3d3c7cd3	0.04601748
158	0xbca5cb35	-0.020238498
159	0x3cbcae46	0.023032319
160	0x3de7be73	0.11315622
161	0x3c1d924d	0.0096174
162	0xbddc578b	-0.10758885
163	0xbdbe4a12	-0.092914715
164	0x3d90974d	0.07060108
165	0x3d581e7c	0.052763447
166	0x3cb4a95e	0.022053417
167	0xbd788db3	-0.06068201
168	0xbdce364e	-0.100689515
169	0x3dd8793b	0.10569998
170	0xbddde2eb	-0.10834297
171	0xbd91709c	-0.07101557
172	0x3d4f22d3	0.05057032
173	0x3dd8cca6	0.105859086
174	0xbd4e25fc	-0.050329193
175	0xbdfd70f4	-0.1237506
176	0x3ce1a8e4	0.027546354
177	0x3bcac393	0.006187865
178	0xbce10bb4	-0.0274714
179	0xbdd1a90a	-0.1023732
180	0x3dadd418	0.08487719
181	0x3cdd3ece	0.027007487
182	0x3d0d5276	0.03450247
183	0x3d96e9c9	0.0736881
184	0x3ddb1e33	0.106991194
185	0xbcf40e74	-0.029792048
186	0x3ca6f93c	0.020382516
187	0xbdb2f151	-0.08737434
188	0xbdc4d281	-0.09610463
189	0xbd930bce	-0.07179986
190	0x3c8b5022	0.017005984
191	0xbd9d3d71	-0.07677735
192	0x3d819ef8	0.06329149
193	0x3d2a509c	0.04158078
194	0xbd491a4a	-0.049097337
195	0x3d90a4dd	0.07062695
196	0x3dd1e29f	0.10248303
197	0xbd2c645e	-0.042087905
198	0x3d78657b	0.060643654
199	0x3db15ac6	0.08659892
200	0x3e013b33	0.12620239
201	0xbdbe7ba0	-0.09300923
202	0x3de51d8b	0.111872755
203	0xbc0d34fb	-0.008618589
204	0x3c2e2cee	0.010630829
205	0x3c075088	0.008258946
206	0xbdaa0980	-0.08302593
207	0xbd5f6adb	-0.054545265
208	0xbdbe556b	-0.09293636
209	0xbca84d34	-0.020544626
210	0x3cf48e34	0.029852964
211	0xbda378f3	-0.079820536
212	0x3d22ee5d	0.039778102
213	0xbdeaecf0	-0.114709735
214	0x3d71bfe8	0.059020907
215	0xbdff48cf	-0.12465059
216	0xbbc112e0	-0.0058921427
217	0x3dc055c3	0.09391358
218	0xbdd7cb8c	-0.1053687
219	0xbdb942a1	-0.090459116
220	0xbd57d183	-0.05269004
221	0xbd523a88	-0.05132535
222	0xbd9ae59e	-0.07563327
223	0x3dcf6a50	0.101276994
224	0xbdbdcdbb	-0.092677556
225	0x3d857f41	0.065184124
226	0xbdb65d76	-0.08904545
227	0xbd4543af	-0.04816025
228	0xbdc982b7	-0.09839385
229	0xbdf78019	-0.120849796
230	0xbd759955	-0.059960682
231	0xbb7b5e23	-0.003835567
232	0x3d6eada1	0.058271054
233	0x3d69fb37	0.057124343
234	0x3d4739ad	0.04863899
235	0x3dd9c472	0.10633172
236	0xbc691ea3	-0.014228496
237	0x3e058056	0.13037238
238	0xbddb96db	-0.10722133
239	0xbd4c6e42	-0.049909838
240	0xbdbd6d98	-0.09249419
241	0xbdb37d09	-0.08764083
242	0xbdb9a874	-0.09065333
243	0xbdf6a974	-0.12044039
244	0x3e02c0e0	0.12768888
245	0x3cb939a6	0.022610497
246	0x3d933685	0.07188133
247	0xbd00c38d	-0.03143649
248	0x3d18d529	0.03731266
249	0xbd9c7f49	-0.07641465
250	0xbdffacc8	-0.12484127
251	0x3c58605a	0.013206566
252	0x3daea748	0.08528
253	0xbc936c5e	-0.01799601
254	0x3d42b536	0.047536097
255	0x3d34b0fd	0.0441141

mode_encoder.layers.0.attn.w_key.bias f4 [64]
0	0xbce0cae8	-0.027440503
1	0x3de8fe0a	0.11376579
2	0xbd992381	-0.07477475
3	0xbda70a40	-0.08156252
4	0xbd5a2f60	-0.053267837
5	0x3b6f3eb5	0.0036505882
6	0xbc87f499	-0.016596125
7	0x3db5ae0d	0.08871088
8	0x3db2f03f	0.087372296
9	0xbd08b748	-0.033377916
10	0x3d236489	0.0398908
11	0x3d6b1c68	0.057400137
12	0x3d337c64	0.0438198
13	0xbbfb6c72	-0.00767284
14	0xbd958c4f	-0.07302152
15	0x3daab669	0.08335573
16	0x3deef844	0.11668447
17	0xbd831067	-0.06399613
18	0x3dd60686	0.10450463
19	0xbc228607	-0.00991965
20	0x3ca7fd0f	0.02050641
21	0xbcbd54b5	-0.02311168
22	0x3b303435	0.0026886587
23	0x3c7ddd7d	0.015494701
24	0xbd8bf566	-0.068339154
25	0x3d1cb68b	0.038260024
26	0x3d5a1c4d	0.053249646
27	0x3dbf04b3	0.09327068
28	0x3d97c759	0.074110694
29	0xbd477597	-0.048696127
30	0xbdfeed29	-0.124475785
31	0x3c9b8a0b	0.018986722
32	0xbcac7407	-0.02105142
33	0x3dde8d19	0.10866756
34	0x3de3de08	0.111263335
35	0x3dc21664	0.09476927
36	0x3de7ea72	0.11324014
37	0x3cc8e215	0.024521867
38	0x3c6b3516	0.014355918
39	0xbdc2f00a	-0.0951844
40	0xbc93a753	-0.018024122
41	0x3d113a74	0.035456136
42	0xbdfc3d0e	-0.12316333
43	0x3d8f9ef0	0.07012737
44	0x3d86c2f9	0.06580157
45	0xbdcf5c7c	-0.10125062
46	0x3cbf8e7d	0.023383373
47	0x3d81ea50	0.0634352
48	0x3de74e6c	0.11294255
49	0x3d144dfd	0.036207188
50	0xbd558353	-0.052127194
51	0x3dac1d12	0.08403982
52	0xbdba33ae	-0.09091888
53	0xbd7aecd8	-0.061261028
54	0x3cd8f7b2	0.026485298
55	0xbd7bdfa9	-0.061492596
56	0x3d9c4727	0.07630759
57	0x3d60313a	0.054734446
58	0xbd50bc7e	-0.05096101
59	0xbde7790f	-0.11302387
60	0xbdd7d779	-0.10539145
61	0x3be831fb	0.0070860363
62	0x3c108ada	0.008822167
63	0x3c6b05fd	0.014344689

mode_encoder.layers.0.attn.w_query.weight f4 [64, 64]
0	0xbddc09df	-0.1074407
1	0x3d673057	0.056442585
2	0xbdb64aaf	-0.089009635
3	0x3c5cf12e	0.013485236
4	0xbcec8424	-0.028871603
5	0xbd7093c5	-0.058734674
6	0xbd36ae88	-0.04460004
7	0xbd030707	-0.031989124
8	0xbd019c87	-0.031643417
9	0xbd5b397b	-0.053521615
10	0xbde6486d	-0.11244283
11	0xbd9565d3	-0.07294812
12	0x3d16bb07	0.036799457
13	0x3d8bfa35	0.068348326
14	0xbdb049cf	-0.08607828
15	0xbd8c30c2	-0.06845237
16	0xbd59fbb1	-0.053218547
17	0xbd3b3cc3	-0.045712244
18	0x3c5efce7	0.013610101
19	0x3d06f635	0.032949645
20	0x3daaf0ee	0.08346735
21	0xbce3f176	-0.027825098
22	0xbd9bb131	-0.07602156
23	0xbd9630ee	-0.07333551
24	0x3d048a80	0.032358646
25	0x3c39e1e1	0.011345358
26	0xbd6bd283	-0.057573806
27	0x371c8538	9.329342e-06
28	0x3dc2b6bd	0.09507511
29	0x3df95f6b	0.12176403
30	0xbc8e94d0	-0.017404944
31	0x3dafca2d	0.08583484
32	0x3b73902a	0.0037164786
33	0xbdc9d511	-0.09855092
34	0x3cc3f7d3	0.023921883
35	0xbb63a86c	-0.0034737838
36	0x3c08c3ca	0.008347461
37	0xbd985881	-0.07438756
38	0x3b7d7e37	0.0038679966
39	0xbda9356a	-0.08262141
40	0x3df7257e	0.12067698
41	0xbdb415dd	-0.087932326
42	0xbdd8aa71	-0.10579384
43	0x3d4b82f8	0.04968545
44	0x3c658113	0.0140078245
45	0xbcd27dc7	-0.025694741
46	0x3d82901c	0.06375143
47	0x3dc89e6f	0.09795844
48	0x3dddef3d	0.10836647
49	0x3aceffcc	0.0015792786
50	0xbbdaa4e3	-0.006672488
51	0x3da0a226	0.07843427
52	0x3dfc3c36	0.12316172
53	0xbc57d82d	-0.013174099
54	0xbd07d17d	-0.033158768
55	0xbc901025	-0.017585823
56	0x3c3ea833	0.0116367815
57	0xbd9b932f	-0.075964324
58	0x3df17525	0.11789922
59	0xbc50c057	-0.01274117
60	0x3d2ecb97	0.042674627
61	0x3dd55f1d	0.10418532
62	0x3d3e7cf7	0.046505895
63	0xbd30243e	-0.043003313
64	0x3dc2f205	0.09518818
65	0x3d10a028	0.035308987
66	0xbd756d2e	-0.059918575
67	0x3dee1c53	0.11626496
68	0xbdec9d28	-0.11553413
69	0x3d7ebe63	0.062193286
70	0xbdae67d5	-0.08515898
71	0x3de0e565	0.109812535
72	0xbdeccf2b	-0.11562952
73	0xbd50504b	-0.050857823
74	0x3db5c221	0.08874918
75	0x3ccec626	0.025240969
76	0xbdeb9e7c	-0.11504838
77	0xbde4b999	-0.111682124
78	0xbdbdadcd	-0.092616655
79	0x3d8bcd91	0.06826318
80	0xbdcb324f	-0.09921705
81	0xbc3ae125	-0.011406218
82	0xbd996bcd	-0.074912645
83	0x3dc5c439	0.09656567
84	0x3d86a4c1	0.06574393
85	0xbd27f784	-0.041007534
86	0xbd3db065	-0.0463108
87	0xbd91f28a	-0.07126339
88	0xbd5081ea	-0.050905146
89	0xbd395c78	-0.0452542
90	0xbbcd2534	-0.0062605385
91	0x3dc45a56	0.09587543
92	0xbdcf1b50	-0.10112631
93	0x3d165cd6	0.03670963
94	0xbe083ce2	-0.13304475
95	0xbd60cb51	-0.054881398
96	0xbd655915	-0.05599316
97	0x3d9354bb	0.071938954
98	0x3d59b51c	0.053151235
99	0xbd5163b3	-0.05112047
100	0xbdd56a4d	-0.10420666
101	0xbda6a1b5	-0.08136312
102	0xbde8d38e	-0.11368476
103	0xbbed3ea1	-0.007240132
104	0x3da405a6	0.0800889
105	0xbbc30593	-0.0059515922
106	0x3d8f755d	0.07004807
107	0xbd02f06c	-0.031967565
108	0x3cec7e97	0.028868956
109	0xbd717fe8	-0.05895987
110	0xbd4b57cc	-0.049644276
111	0x3dc07350	0.09396994
112	0x3de930fc	0.11386296
113	0x3d206580	0.039159298
114	0xbcfd65fa	-0.030932415
115	0xbc13921a	-0.009007001
116	0xbded57e9	-0.11589033
117	0xbcbc2aec	-0.022969685
118	0xbd3219d7	-0.043481674
119	0x3d9c78d3	0.07640233
120	0xbdc068b1	-0.09394968
121	0x3d67e7e5	0.056617636
122	0x3c1abbb0	0.009444162
123	0xbe0277eb	-0.12741058
124	0xbd20bb0b	-0.039240878
125	0x3dad719c	0.08468935
126	0xbcb823ef	-0.022478072
127	0x3d6e3d4c	0.058163926
128	0x3df28813	0.1184236
129	0xbdb5eff8	-0.08883661
130	0x3d32b03f	0.043625113
131	0x3d9ebd70	0.07750976
132	0xbd611228	-0.054948956
133	0xbda1c755	-0.07899348
134	0x3d53d001	0.05171204
135	0xbd2e0eb8	-0.042494506
136	0xbc054f80	-0.00813663
137	0xbd0b9a69	-0.034082804
138	0xbdce301d	-0.10067771
139	0x3cd0f414	0.02550701
140	0x3cd48fb5	0.025947431
141	0x3da32f76	0.07968037
142	0xbd0bb6d1	-0.034109894
143	0x3de94511	0.113901265
144	0xbdc4adfd	-0.09603498
145	0x3d52b301	0.051440243
146	0x3dea557a	0.114420846
147	0x3d66f7ac	0.056388542
148	0x3cf0b2dc	0.029382162
149	0xbd0f3776	-0.034965
150	0xbc29ed76	-0.0103715565
151	0x3df1839e	0.11792682
152	0xbd296f0d	-0.041365672
153	0x3db57295	0.088597454
154	0xbdd1b84a	-0.102402285
155	0x3d011193	0.0315109
156	0xbd89e7ea	-0.06733687
157	0xbdcbd868	-0.099533856
158	0x3df6f5e5	0.120586194
159	0xbcb6e231	-0.022324653
160	0xbcbd6114	-0.02311758
161	0xbbebd20e	-0.0071966713
162	0x3da1fa5a	0.07909079
163	0xbd839097	-0.06424063
164	0xbd36564b	-0.04451589
165	0x3b52644c	0.0032103239
166	0x3aaa7fb3	0.0013008028
167	0xbdb238fc	-0.08702275
168	0x3d3faf71	0.046798173
169	0xbdf95a44	-0.1217542
170	0x3dec0ea4	0.1152623
171	0x3da6da14	0.08147064
172	0x3ca7fe94	0.020507134
173	0x3db3a7da	0.087722495
174	0xbdde076e	-0.10841261
175	0x3d6b1de7	0.057401564
176	0xbdf6f51e	-0.12058471
177	0x3dd8e8b1	0.10591257
178	0xbd3b8a05	-0.045785923
179	0x3d8846ec	0.06654152
180	0x3cae6920	0.021290362
181	0xbd8e5140	-0.06949091
182	0xbd2e3100	-0.0425272
183	0x3de38ccd	0.1111084
184	0xbd76b9c0	-0.06023574
185	0x3d09a99f	0.03360903
186	0x3ddc3248	0.10751778
187	0xbc4f507a	-0.012653464
188	0xbbba4add	-0.005685194
189	0x3d154ae2	0.036448367
190	0x3da73f22	0.081663385
191	0x3d36ab94	0.044597223
192	0x3c189067	0.009311772
193	0xbdccd94f	-0.10002386
194	0xbdce388e	-0.10069381
195	0xbcdcb6b0	-0.026942581
196	0xbd9e5f0d	-0.07732973
197	0xbd0dbc22	-0.034603246
198	0x3d8bd3dd	0.06827519
199	0xbd823957	-0.06358593
200	0x3db4be51	0.088253625
201	0xbde23179	-0.110445924
202	0x3db15771	0.08659256
203	0xbd881d98	-0.066462696
204	0x3e021173	0.12701969
205	0xbda9fad0	-0.08299792
206	0xbdd14294	-0.10217777
207	0x3dca8a35	0.09889642
208	0x3d8da1a3	0.069155954
209	0xbdd33aba	-0.103139356
210	0xbddb028e	-0.10693847
211	0x3e05f874	0.13083059
212	0x3d828260	0.06372523
213	0xbdee2bc7	-0.116294436
214	0xbd324feb	-0.043533247
215	0xbcbf33bd	-0.0233401
216	0xbd8899bf	-0.0666995
217	0x3cb6fa36	0.022336107
218	0xbd809a55	-0.062794365
219	0xbcbb67af	-0.022876589
220	0x3cf8a3a3	0.030351466
221	0x3dd40629	0.103527375
222	0xbd77dc11	-0.060512606
223	0x3cb12ac5	0.02162684
224	0xbdfa54b2	-0.122231856
225	0xbcb6d49f	-0.022318183
226	0x3c61954d	0.013768506
227	0xbd42cfe9	-0.04756156
228	0x3c82ec43	0.015981799
229	0x3d9a34af	0.0752958
230	0x3da2b7c3	0.07945206
231	0xbd24637b	-0.040133934
232	0xbd957552	-0.07297768
233	0x3daf0c6c	0.08547291
234	0x3b2b6251	0.002615113
235	0xbdecb8a6	-0.115586564
236	0xbd9c0177	-0.07617467
237	0x3d306e2c	0.043073818
238	0x3d87dc9b	0.06633874
239	0xbbb5a03a	-0.005542782
240	0x3d8b9d47	0.06817108
241	0x3dd87436	0.105690405
242	0x3c4cd0ea	0.012500981
243	0x3db8c0fc	0.09021184
244	0x3df52238	0.11969417
245	0x3dc8ce3f	0.09804963
246	0x3e0808da	0.13284627
247	0xbda7f502	-0.082010284
248	0xbd65a84d	-0.056068707
249	0xbd5bc161	-0.053651217
250	0x3d1a265e	0.037634246
251	0x3bedf441	0.0072617834
252	0x3bc892dc	0.0061210226
253	0x3d3a6f09	0.045516048
254	0xbd71451f	-0.05890381
255	0x3e00ffcb	0.12597577

mode_encoder.layers.0.attn.w_query.bias f4 [64]
0	0xbc948b15	-0.018132726
1	0xbdd488fc	-0.1037769
2	0x3dd90d67	0.105982594
3	0xbd226e43	-0.039655935
4	0x3da5c1c5	0.08093599
5	0x3d232f2b	0.039839905
6	0xbd67057b	-0.05640171
7	0xbdea26d4	-0.11433187
8	0xbd1ea050	-0.038727105
9	0xbd960579	-0.073252626
10	0x3cc3fff2	0.023925755
11	0xbd37424f	-0.04474097
12	0xbdd76c48	-0.105187
13	0x3df4b2ae	0.11948143
14	0xbdb76e6f	-0.089566104
15	0x3c9a2dd9	0.01882069
16	0xbd8bfb5d	-0.06835053
17	0x3d4c3555	0.04985555
18	0xbd5d637b	-0.05404995
19	0xbde6b7a2	-0.11265494
20	0x3dc366d3	0.095410965
21	0x3d641cd5	0.05569156
22	0x3c6a12ee	0.01428674
23	0xbdec97fa	-0.11552425
24	0x3c0b9bcf	0.008521034
25	0xbd81fc3f	-0.0634694
26	0x3cb86dc5	0.02251328
27	0xbd072885	-0.032997627
28	0xbd8ff264	-0.07028654
29	0x3e051cc6	0.12999257
30	0x3dd46bee	0.103721485
31	0xbcd80fe2	-0.026374761
32	0xbd04eb74	-0.032451108
33	0xbdf2a76e	-0.11848341
34	0xbd9b7784	-0.07591155
35	0xbd147c29	-0.03625122
36	0x3dafacdb	0.085778914
37	0xbcda6215	-0.026658097
38	0x3ddfd1ef	0.109287135
39	0x3df2d88b	0.118577085
40	0xbb1a8fc6	-0.002358423
41	0x3cc358c3	0.023846036
42	0x3deb1b12	0.114797726
43	0x3d578fe7	0.05262747
44	0x3d8b9b3d	0.06816719
45	0x3b48707f	0.003058463
46	0x3ce7e0a9	0.028305368
47	0x3ddaef96	0.10690229
48	0x3dcbb32e	0.09946285
49	0x3d8f6dc2	0.070033565
50	0xbdd24d5c	-0.102686614
51	0x3dadaa01	0.08479691
52	0xbda01ec0	-0.07818365
53	0xbdbca6c5	-0.09211496
54	0x3d22ea85	0.039774437
55	0x3d242fd1	0.040084664
56	0x3d9a0619	0.07520694
57	0x3da20cf8	0.0791263
58	0x3da8a7cc	0.0823513
59	0x3d58f374	0.05296655
60	0x3db013c4	0.0859752
61	0xbd97dcc7	-0.07415157
62	0xbdb9f269	-0.09079439
63	0x3ca47a94	0.020077981

mode_encoder.layers.0.attn.w_value.weight f4 [64, 64]
0	0xbcb0beba	-0.02157532
1	0x3c0c5e2a	0.008567372
2	0xbb442e54	-0.002993484
3	0x3db6ce36	0.0892605
4	0xbda9c35e	-0.082892165
5	0xbc84c291	-0.016206058
6	0xbd8a7dbf	-0.067622654
7	0xbdc41843	-0.0957494
8	0x3d326717	0.043555345
9	0x3dd3a6b2	0.10334529
10	0xbd3e417b	-0.046449166
11	0xbd75381b	-0.05986796
12	0x3dfa540c	0.12223062
13	0x3dae1c63	0.08501508
14	0xbd9b3d03	-0.075799964
15	0xbd5d62eb	-0.054049414
16	0x3d6b0283	0.057375442
17	0xbdbce0b4	-0.09222546
18	0x3d103d18	0.035214514
19	0x3d0c4272	0.034243055
20	0xbc2df432	-0.010617303
21	0xbd85ae9b	-0.06527444
22	0xbd8f7e34	-0.07006493
23	0xbc551176	-0.013004651
24	0x3d83d8d8	0.06437844
25	0xbc2381ae	-0.0099796485
26	0xbdf23590	-0.118266225
27	0xbdb94c68	-0.090477765
28	0x3c8d478f	0.017246036
29	0x3c8d27b9	0.017230855
30	0x3c2c13d8	0.010502778
31	0x3d29dbfb	0.041469555
32	0x3d89b186	0.06723313
33	0xbd4898c2	-0.048973806
34	0xbdd6142c	-0.10453066
35	0x3df48e5e	0.11941217
36	0x3cff36d8	0.031154081
37	0xbdef25f6	-0.11677162
38	0xbb700a00	-0.0036627054
39	0x3c02f7b1	0.007993625
40	0xbdf6be26	-0.12047987
41	0xb73cc00b	-1.1250387e-05
42	0x3d13e2c5	0.036104936
43	0xbe0895d9	-0.13338412
44	0x3d2ccf41	0.04218984
45	0xbdbb8a6b	-0.091572605
46	0x3a6fb29b	0.0009143741
47	0x3dd520b2	0.10406627
48	0xbdc0da02	-0.09416582
49	0x3cee5703	0.029094225
50	0xbdb4894f	-0.08815252
51	0xbddbcab7	-0.10732024
52	0x3db1fa9a	0.086903766
53	0x3cc740aa	0.024322826
54	0xbdd14019	-0.10217304
55	0x3d6890e8	0.05677882
56	0xbdc47e04	-0.09594348
57	0x3dd4f127	0.10397559
58	0x3e0dd714	0.13851577
59	0x3dc4d2c4	0.09610513
60	0x3ba872b1	0.0051406254
61	0xbdd42260	-0.10358119
62	0x3d83a413	0.06427779
63	0xbd46847c	-0.04846619
64	0xbcb4b791	-0.022060188
65	0xbddae3bf	-0.1068797
66	0x3c4c9227	0.012486017
67	0x3d81729e	0.063206896
68	0x3dc0c1b0	0.09411943
69	0x3a82655a	0.0009948418
70	0x3c0857b1	0.0083216885
71	0x3d8ff2b8	0.07028717
72	0x3dc7ebab	0.09761747
73	0xbd2e8138	-0.0426037
74	0xbe105d30	-0.14098048
75	0xbdab3bc3	-0.08361008
76	0x3cc074f0	0.02349326
77	0xbdf2305d	-0.11825631
78	0x3cb53b40	0.02212298
79	0x3dd2c73c	0.10291907
80	0x3c887a4c	0.016659878
81	0x3d34c598	0.044133753
82	0xbdcc176c	-0.09965405
83	0x3d818f08	0.06326109
84	0x3d6955e8	0.056966692
85	0xbdb5e414	-0.08881393
86	0x3c219230	0.009861514
87	0x3d76619a	0.060151674
88	0xbdd954b1	-0.10611857
89	0xbafe90b8	-0.0019421792
90	0xbb521a1a	-0.0032059015
91	0x3d84d59c	0.06486055
92	0x3dc38c92	0.09548296
93	0x3a34e08c	0.0006899915
94	0x3c02e7c4	0.007989828
95	0xbbea76db	-0.007155282
96	0x3c4b6e1d	0.01241639
97	0xbcc58b93	-0.024114406
98	0x3d2b8b37	0.041880812
99	0x3dd3bfc8	0.10339314
100	0xbde7443f	-0.11292314
101	0x3d28f9e5	0.041253943
102	0xbbed6a7a	-0.007245359
103	0x3dd1de5c	0.1024749
104	0xbc9a066f	-0.018801896
105	0x3a0a9aff	0.00052873784
106	0x3dcc79ed	0.09984193
107	0xbd76c36e	-0.06024497
108	0xbdbd58b8	-0.092454374
109	0xbdfde495	-0.12397114
110	0xbd9e23f7	-0.077217035
111	0xbcc4fe72	-0.02404711
112	0xbe01f969	-0.12692799
113	0xbd03c59b	-0.032170873
114	0xbb9d66ae	-0.0048035
115	0x3dd60d77	0.10451787
116	0xba6ff1f3	-0.00091531797
117	0x3dbb63c8	0.09149891
118	0x3d7ba37b	0.061435204
119	0xbcc1cd35	-0.02365742
120	0x3d72f7b8	0.059318274
121	0xbd1012ac	-0.035174057
122	0x3cbc750a	0.023005027
123	0xbbe88a0f	-0.007096536
124	0x3c57be76	0.013167968
125	0xbd24da2e	-0.040247135
126	0x3d2a083c	0.04151176
127	0x3d98633a	0.07440801
128	0x3bfd415a	0.007728738
129	0xbe09821f	-0.13428544
130	0xbddbd249	-0.10733468
131	0xbd2ec44a	-0.042667665
132	0xbd5ea9b1	-0.05436105
133	0x3c80bdb6	0.015715461
134	0x3cb335f0	0.021876305
135	0xbcac17b2	-0.021007393
136	0x3cbc9bcd	0.02302351
137	0x3c8d4518	0.01724486
138	0x3dab9a62	0.083790556
139	0x3d47bc5b	0.048763614
140	0xbd87d47d	-0.06632326
141	0xbdd87595	-0.10569302
142	0xbda05aa4	-0.07829788
143	0xbd70f3f2	-0.058826394
144	0x3d8d0772	0.06886186
145	0x3b4de812	0.0031418842
146	0xbd9d84c9	-0.076913424
147	0xbe0031f8	-0.12519062
148	0x3ba35088	0.0049839653
149	0xbd449cd7	-0.048001137
150	0xbdb3c705	-0.08778194
151	0x3d977bb9	0.07396645
152	0x3c4d34d2	0.0125248
153	0xbd02ef53	-0.03196652
154	0x3cc7c945	0.024387965
155	0x3b576678	0.0032867473
156	0xbc1f2057	-0.0097123
157	0xbcabfaa1	-0.020993533
158	0x3dbf31b9	0.09335656
159	0xbda769a6	-0.08174448
160	0x3d1af0d3	0.037827324
161	0xbdeab9e2	-0.114612356
162	0xbde1487a	-0.11000152
163	0xbcc4cd85	-0.02402378
164	0xbcf500e8	-0.029907659
165	0xbdae2e21	-0.08504892
166	0xbdd36880	-0.10322666
167	0x3d6c1183	0.057633888
168	0x3cc24575	0.02371476
169	0x3d684563	0.056706797
170	0xbda6f44b	-0.08152064
171	0xbe03049d	-0.12794729
172	0xbc6f6ca9	-0.014613309
173	0x3cb13d7b	0.021635761
174	0x3c093caa	0.00837628
175	0xbdae8275	-0.085209765
176	0xbd894aa0	-0.06703687
177	0x3d451ea2	0.048124917
178	0xbcb401b1	-0.021973463
179	0x3db7c8bb	0.08973833
180	0xbc0d5366	-0.008625841
181	0xbde97b3b	-0.114004575
182	0xbdb17b80	-0.08666134
183	0x3d8b2393	0.067938946
184	0x3dd95216	0.1061136
185	0xbd86075d	-0.06544373
186	0x3d5ef25b	0.054430347
187	0xbc878b37	-0.016545875
188	0xbd0742e4	-0.033022776
189	0x3d45496e	0.04816573
190	0xbd9d5f76	-0.07684223
191	0xbd30ed26	-0.043194912
192	0xbcd34e39	-0.025794135
193	0xbddcd581	-0.1078291
194	0xbd4883ee	-0.048953943
195	0xbd9f3e4e	-0.077755556
196	0x3dc96186	0.09833054
197	0xbdbd2db8	-0.09237236
198	0x3e06ee88	0.1317693
199	0x3db59487	0.0886622
200	0xbe09872f	-0.13430475
201	0xbd90d14f	-0.070711724
202	0x3cdf40be	0.027252551
203	0x3d855642	0.06510593
204	0x3dced791	0.1009971
205	0xbde3a0ad	-0.11114631
206	0xbdbe04b7	-0.09278243
207	0x3c3ca0a3	0.011512908
208	0xbd95907f	-0.07302951
209	0xbcf3d200	-0.029763222
210	0xbd51e5a6	-0.0512444
211	0x3d8c72d2	0.06857838
212	0x3ca1c5e6	0.019747686
213	0x3d68eea0	0.056868196
214	0xbdb10c53	-0.08644929
215	0xbd64f980	-0.055902004
216	0x3cf83b75	0.030301789
217	0xbde3b813	-0.11119094
218	0x3db553c4	0.08853868
219	0xbe045316	-0.1292232
220	0xbdb879a7	-0.09007578
221	0xbcff9bb0	-0.031202167
222	0x3df0f8b9	0.1176619
223	0x3cb7d06c	0.02243825
224	0x3d578cd8	0.052624553
225	0xbb108dd9	-0.0022057204
226	0x3d775053	0.060379338
227	0x3d8c6e61	0.068569906
228	0x3d9e972a	0.07743676
229	0x3bca9fb6	0.00618359
230	0xbdd41bbf	-0.10356855
231	0x3dffd64b	0.12492045
232	0xbd41742f	-0.047229942
233	0x3c73cc91	0.014880315
234	0xbd4c1f65	-0.049834628
235	0xbd9af76e	-0.07566725
236	0xbdc052ef	-0.09390818
237	0xbc7a8c85	-0.0152922915
238	0x3d91981d	0.071090914
239	0xbdf1886d	-0.11793599
240	0xbdf06e09	-0.117397375
241	0x3c1d6241	0.009605945
242	0xbcae294e	-0.02125993
243	0xbde77d0d	-0.113031484
244	0x3b826640	0.0039794743
245	0x3e0135cd	0.1261818
246	0x3dbcd02a	0.09219392
247	0x3b3d2f48	0.0028867293
248	0x3dcc2085	0.0996714
249	0xbd059297	-0.032610502
250	0xbdaf31fc	-0.08554456
251	0x3cf45594	0.029825963
252	0x3d68dfe5	0.056854147
253	0xbd52c7e6	-0.05146017
254	0xbdf32436	-0.11872141
255	0xbca0f8a1	-0.019649806

mode_encoder.layers.0.attn.w_value.bias f4 [64]
0	0x3ceef265	0.029168317
1	0xbd9fbc78	-0.077996194
2	0xbdce4db4	-0.100734144
3	0xbcc4fd04	-0.024046429
4	0xbd17a7eb	-0.037025373
5	0x3da5e3ff	0.081001274
6	0x3da22ac9	0.07918317
7	0x3ddd5831	0.10807837
8	0xbc90e449	-0.01768698
9	0xbd20d23d	-0.039263
10	0x3db749bf	0.08949613
11	0xbc994821	-0.018711152
12	0x3d413cf0	0.047177255
13	0x3dee6524	0.11640385
14	0xbdee278e	-0.11628638
15	0xbd48764f	-0.048940953
16	0x3baf5213	0.00535036
17	0xbcde1cf8	-0.027113423
18	0xbd83fcc0	-0.064446926
19	0x3c541ed8	0.012946807
20	0xbd88a399	-0.06671829
21	0x3dbc7851	0.09202636
22	0xbd531e67	-0.051542666
23	0xbd367952	-0.044549294
24	0x3ca1c181	0.01974559
25	0xbe0f9800	-0.14022827
26	0xbb2eed00	-0.0026691556
27	0xbd9d46e8	-0.0767954
28	0x3dca2d10	0.09871876
29	0x3dd4ec50	0.103966355
30	0x3d970425	0.073738374
31	0xbdae0d9f	-0.08498692
32	0xbdec52bb	-0.11539217
33	0x3dcc5f5b	0.09979125
34	0x3ce39338	0.02778016
35	0x3cb78951	0.022404345
36	0xbd6d410b	-0.057923358
37	0xbc5b3683	-0.013379696
38	0x3d9be555	0.07612101
39	0x3d46669a	0.048437692
40	0x3df845a5	0.12122659
41	0xbde312d4	-0.110875756
42	0xbd9397cd	-0.07206688
43	0x3c8a43f9	0.016878115
44	0xbc822c20	-0.015890181
45	0xbd9d40c5	-0.076783694
46	0x3dc9dc76	0.09856503
47	0xbd7385d2	-0.059453793
48	0x3d11ac82	0.035564907
49	0xbd82e725	-0.063917436
50	0xbddbcf1d	-0.10732863
51	0x3b859590	0.004076667
52	0xbde46c33	-0.1115345
53	0x3c65e296	0.014031073
54	0xbde3c7db	-0.11122104
55	0x3d337b5e	0.043818824
56	0xbddc81b7	-0.10766929
57	0xbd26b656	-0.040701233
58	0xbd9fefbb	-0.07809397
59	0xbd450769	-0.04810277
60	0xbc62f48d	-0.013852251
61	0xbd5d3c09	-0.054012332
62	0xbd05916a	-0.03260938
63	0x3de392ab	0.11111959

mode_encoder.layers.0.attn.fc_out.weight f4 [64, 64]
0	0x3dc9ca1e	0.09853004
1	0xbdd5176e	-0.104048595
2	0x3d3a8bac	0.045543358
3	0xbde1307b	-0.10995575
4	0xbc7897c8	-0.015172906
5	0xbd958b9a	-0.073020175
6	0x3c81bc0c	0.015836738
7	0xbdbeb36e	-0.09311567
8	0x3dc3f1fd	0.0956764
9	0x3bd206fa	0.006409523
10	0xbc982865	-0.01857395
11	0x3c006acd	0.007837963
12	0xbdf24bb0	-0.118308425
13	0xbd01ffb5	-0.031738
14	0x3ddaff2d	0.10693202
15	0xbcdf03e6	-0.027223539
16	0x3d148cc1	0.036267046
17	0x3cee0380	0.029054403
18	0x3d857913	0.06517234
19	0x3ccd86f4	0.025088765
20	0xbd8a3092	-0.06747545
21	0x3d4836dd	0.048880447
22	0x3d4c572b	0.049887817
23	0x3d99bc3a	0.075066045
24	0x3dd1cf50	0.1024462
25	0x3dfa0f6d	0.122099735
26	0x3cf2f05e	0.029655632
27	0x3d132bb7	0.03593036
28	0x3d068237	0.032839026
29	0xbd2b80eb	-0.041870993
30	0xbdabfb48	-0.083975375
31	0x3dc693da	0.09696169
32	0xbcf3d9d5	-0.029766956
33	0xbdec7107	-0.11544996
34	0x3d513340	0.051074266
35	0x3dcf1ef6	0.10113327
36	0xbdf7523a	-0.1207623
37	0x3d322de0	0.04350078
38	0x3d9772b4	0.07394925
39	0x3ddd25fe	0.10798262
40	0xbcbcbd56	-0.023039501
41	0x3d3556ad	0.044272114
42	0x3de6d559	0.112711616
43	0x3d2f5850	0.04280883
44	0xbddfa7b3	-0.10920658
45	0x3d109863	0.035301577
46	0xbd05c836	-0.03266164
47	0xbd8f21a4	-0.06988838
48	0x3d907e3a	0.07055326
49	0xbe0faff5	-0.14031966
50	0xbd24e04d	-0.040252972
51	0x3d3714fd	0.04469775
52	0x3d7e1f3b	0.062041502
53	0xbd5b0f20	-0.05348122
54	0xbd0a39be	-0.033746473
55	0xbd8c312c	-0.06845316
56	0xbdd2a248	-0.10284859
57	0xbe0403b2	-0.12892035
58	0x3d90f4cb	0.070779406
59	0x3cd1a86c	0.025593005
60	0x3da40802	0.0800934
61	0x3d71fe53	0.059080433
62	0x3db7c347	0.08972793
63	0x3d5fb077	0.05461165
64	0x3da91855	0.08256594
65	0x3de5bdab	0.11217817
66	0x3c2cde16	0.010550996
67	0x3dee4650	0.11634505
68	0xbd8dddf9	-0.069271035
69	0x3ded6277	0.11591046
70	0xbdbac47b	-0.09119507
71	0xbdc6da44	-0.097095996
72	0xbda55749	-0.08073289
73	0xbd86c514	-0.065805584
74	0x3d940954	0.07228342
75	0x3b184c16	0.002323871
76	0x3e021d75	0.1270655
77	0x3dff18f1	0.12455929
78	0x3da14af6	0.07875626
79	0x3db55b44	0.08855298
80	0xbd926cd9	-0.07149667
81	0x3db7c19b	0.08972474
82	0x3d0c99ff	0.03432655
83	0x3d47e82b	0.048805397
84	0x3df7614f	0.12079107
85	0x3c2cf1ac	0.010555666
86	0x3d98abb0	0.07454622
87	0x3caa0be7	0.020757629
88	0x3ceb8895	0.02875165
89	0x3d816ef0	0.06319988
90	0xbdd9dc9f	-0.10637783
91	0xba0846c5	-0.0005198534
92	0xbda2a0f9	-0.07940859
93	0x3dd5e9f8	0.104450166
94	0x3dbc9d69	0.09209711
95	0x3d7ebd05	0.06219198
96	0x3e023fcb	0.12719648
97	0x3d27dcaa	0.040981926
98	0xbd314bc8	-0.04328516
99	0xbd1bf945	-0.03807952
100	0x3df77b67	0.12084084
101	0xbca3145f	-0.019907175
102	0xbdc5bd05	-0.09655193
103	0xbe0b04c2	-0.13576034
104	0xbd339e72	-0.043852277
105	0x3ca3f652	0.020014916
106	0x3d456017	0.04818734
107	0x3d4c4385	0.04986908
108	0xbd83aa05	-0.06428913
109	0xbdc47e76	-0.09594433
110	0x3d8c04de	0.06836866
111	0x3db470fe	0.08810614
112	0x3d90c001	0.07067872
113	0xbdd0477b	-0.10169884
114	0xbcbcefaa	-0.0230635
115	0xbc0cc3c1	-0.008591593
116	0x3d8adfc8	0.06780964
117	0x3dbdb223	0.092624925
118	0x3df4cf5e	0.11953615
119	0x3c53928c	0.0129133575
120	0x3df1116e	0.117709026
121	0xbd2ba7f9	-0.041908238
122	0xbd77efd2	-0.060531445
123	0xbc1774ca	-0.009244153
124	0xbde8dcba	-0.11370225
125	0xbd207320	-0.03917229
126	0xbdd622f7	-0.10455888
127	0x3dc04f3a	0.09390111
128	0xbd1e52be	-0.038653128
129	0xbc169ccf	-0.0091926595
130	0x3d6c6be1	0.05772007
131	0x3e0b859c	0.13625187
132	0x3dbcef90	0.092253804
133	0xbcf5ce70	-0.030005664
134	0xbdc1ed31	-0.09469069
135	0xbc8f19aa	-0.017468292
136	0xbd2098ed	-0.03920834
137	0xbd67f3f0	-0.05662912
138	0x3dc12ddc	0.09432575
139	0xbdc3c03e	-0.09558152
140	0x3d3d6d44	0.046246782
141	0xbc077e8b	-0.008269916
142	0x3d592d75	0.053021867
143	0xbdec21da	-0.11529894
144	0xbd993105	-0.07480053
145	0x3d5f442a	0.054508366
146	0x3be81814	0.0070829485
147	0xbc036b76	-0.008021226
148	0xbe046c36	-0.12931904
149	0xbde26ff3	-0.11056509
150	0x3c8460bb	0.016159406
151	0x3cd471b7	0.02593313
152	0x3dfd66c6	0.12373118
153	0xbd7f6f72	-0.062362142
154	0xbc6940cb	-0.014236639
155	0x3d7d0247	0.06176975
156	0x3c35d111	0.011097209
157	0xbd1b996f	-0.037988123
158	0x3d3bd7a2	0.04585994
159	0xbbe933dd	-0.0071167783
160	0xbe087552	-0.13326004
161	0x3d4d58b8	0.050133437
162	0xbd94ccdb	-0.072656356
163	0x3e0562c0	0.13025951
164	0x3db563f2	0.08856954
165	0x3bf3c0d3	0.007438758
166	0x3da49cf9	0.08037753
167	0x3e07ea4c	0.13272971
168	0x3d5d9c66	0.05410423
169	0x3bea789f	0.0071554924
170	0x3d100140	0.035157442
171	0xbd99dc32	-0.07512702
172	0xbdafa601	-0.085765846
173	0x3d7bba67	0.061457064
174	0xbdb4028d	-0.08789549
175	0x3cd98b03	0.026555544
176	0x3de8df77	0.113707475
177	0x3cc137ac	0.023586117
178	0xbb8ef7a5	-0.0043630176
179	0x3de7ba7a	0.113148645
180	0x3d8dba12	0.06920256
181	0xbcf4ac34	-0.02986727
182	0x3df8ba1f	0.12144875
183	0xbd34ba3a	-0.044122912
184	0x3a08add7	0.00052138924
185	0xbd06c11e	-0.032899015
186	0x3d80bda4	0.06286171
187	0x3d5d8bc7	0.05408838
188	0x3d8b32b8	0.06796783
189	0x3db575f1	0.08860386
190	0xbd9aaaa4	-0.07552078
191	0x3d764d6e	0.060132436
192	0xbded4586	-0.11585526
193	0x3be50d04	0.006990077
194	0xbdccb716	-0.09995858
195	0x3dc3f6dc	0.09568569
196	0xbdd72498	-0.105050266
197	0xbd981062	-0.07425
198	0x3ae7b22c	0.0017677001
199	0xbc62fbd6	-0.013853988
200	0xbde91f1e	-0.11382888
201	0x3db31d5f	0.087458365
202	0xbd9dc982	-0.0770445
203	0xbce28eab	-0.02765592
204	0x3d06563b	0.03279708
205	0xbd69c981	-0.057076935
206	0x3df1b120	0.11801362
207	0xbc157751	-0.0091226855
208	0x3dc3f81f	0.0956881
209	0x3cd252f4	0.02567432
210	0xbd8370cc	-0.06417999
211	0x3d4afac0	0.04955554
212	0x3db56377	0.08856862
213	0xbd0a1762	-0.033713706
214	0xbd89e31d	-0.067327715
215	0xbb09a352	-0.0021001888
216	0x3cc47a02	0.02398396
217	0x3c8918f1	0.016735526
218	0x3e0f577e	0.1399822
219	0xbcd0b7d5	-0.025478283
220	0x3c6a1490	0.014287129
221	0xbc3cc299	-0.011521005
222	0xbdaf933c	-0.085730046
223	0x3d5eb91d	0.054375757
224	0xbdcb6e7e	-0.09933184
225	0x3decd460	0.11563945
226	0xbdc20780	-0.09474087
227	0xbe123da2	-0.14281324
228	0x3dbde452	0.09272064
229	0x3dc57f57	0.09643429
230	0x3dbb6eb8	0.09151977
231	0x3d3111e8	0.043229967
232	0xbdae2f18	-0.08505076
233	0x3da68b58	0.081320465
234	0xbd3dafd8	-0.046310276
235	0xbdb8caa4	-0.09023026
236	0xbd5c38d5	-0.053765137
237	0x3dc2aeb0	0.09505975
238	0xbd1b7692	-0.037954874
239	0x3b9f5fcb	0.0048637143
240	0xbdc1f065	-0.0946968
241	0x3ce6d947	0.028179778
242	0xbd606b90	-0.05479008
243	0xbdc2c9c0	-0.09511137
244	0xbbe5cd09	-0.0070129675
245	0xbde99760	-0.114058256
246	0x3e022168	0.12708056
247	0xbd5e7303	-0.054308902
248	0x3d3a7b9e	0.045528047
249	0xbda84ded	-0.08217988
250	0xbdc4a0cc	-0.09600982
251	0xbd4b9d17	-0.04971036
252	0x3d46fb06	0.04857924
253	0xbd8f30f2	-0.069917575
254	0xbd02d693	-0.031942915
255	0x3da03aa8	0.07823688

mode_encoder.layers.0.attn.fc_out.bias f4 [64]
0	0xbcacb843	-0.021083957
1	0x3d0de334	0.034640506
2	0xbdb3e25e	-0.087834105
3	0x3d35db91	0.044398848
4	0xbd5528fa	-0.05204103
5	0xbdedb013	-0.11605849
6	0x3daa9963	0.083300374
7	0x3d016dc6	0.03159883
8	0x3c3cf9f2	0.011534201
9	0xbdd3517c	-0.10318276
10	0x3d9260d3	0.07147374
11	0xbdcb3e35	-0.099239744
12	0xbd56f1ef	-0.05247682
13	0x3c99ceb3	0.01877532
14	0x3db812e5	0.08987979
15	0xbdc5adb7	-0.09652274
16	0xbda524f3	-0.08063688
17	0x3d81d266	0.063389584
18	0xbda8f52e	-0.08249889
19	0xbdaf2ad6	-0.08553092
20	0xbb3c00c6	-0.0028686984
21	0x3d23effd	0.040023793
22	0xbd909c30	-0.070610404
23	0x3ce59d0d	0.02802899
24	0x3de263c2	0.110541835
25	0xbdc8ebf2	-0.09810628
26	0x3cc9e7b1	0.024646612
27	0xbde18aff	-0.110128395
28	0x3dad4182	0.0845976
29	0xbd95337b	-0.0728521
30	0x3c8ef665	0.017451474
31	0x3dc41c9f	0.095757715
32	0xbd3a6b3e	-0.04551243
33	0xbd0b091c	-0.033944234
34	0xbc4c8d7b	-0.012484903
35	0x3d2e127b	0.042498093
36	0x3dc075b8	0.09397453
37	0xbde7d7b1	-0.11320437
38	0x3d4d173c	0.050070986
39	0x3d65ea8d	0.05613189
40	0x3db6be31	0.08922995
41	0xbd34c858	-0.044136375
42	0x3d48bd4e	0.04900866
43	0xbdb132af	-0.08652245
44	0xbd37cd63	-0.044873606
45	0x3d72aa7d	0.05924462
46	0xbe0755c8	-0.13216317
47	0xbdd4689c	-0.10371515
48	0x3dc926cc	0.09821853
49	0xbd2aa2ea	-0.041659273
50	0xbc9ac2ff	-0.01889181
51	0x3db811e7	0.089877896
52	0x3d9c30f5	0.07626525
53	0x3dc25de8	0.094905674
54	0x3dd6950d	0.10477648
55	0xbc8c42fe	-0.017121788
56	0xbd7abbf2	-0.061214395
57	0xbc02e9ba	-0.007990295
58	0xbd06154d	-0.032735158
59	0x3c8ad60a	0.016947765
60	0x3de9c0b2	0.11413707
61	0xbdb8b417	-0.090187244
62	0xbdcc9a24	-0.099903375
63	0x3d9f7e22	0.0778773

mode_encoder.layers.0.norm1.a f4 [64]
0	0x3f80352f	1.001623
1	0x3f7e3aaa	0.99308264
2	0x3f81452d	1.0099236
3	0x3f7ece68	0.995337
4	0x3f7bec1a	0.9840714
5	0x3f7bf210	0.98416233
6	0x3f81f704	1.0153508
7	0x3f802075	1.0009905
8	0x3f7d3632	0.9891082
9	0x3f8015df	1.0006675
10	0x3f7da5c2	0.9908105
11	0x3f7c8220	0.98636055
12	0x3f80090d	1.0002762
13	0x3f7aaf78	0.97923994
14	0x3f816103	1.0107731
15	0x3f8176ec	1.0114417
16	0x3f8070bf	1.0034407
17	0x3f80ced0	1.0063114
18	0x3f8254a5	1.0182081
19	0x3f8116f4	1.008513
20	0x3f7c199a	0.98476565
21	0x3f7cb0d9	0.9870735
22	0x3f81c566	1.0138366
23	0x3f7f8496	0.99811685
24	0x3f8357ef	1.026121
25	0x3f7f6f07	0.9977879
26	0x3f81ba37	1.0134953
27	0x3f7d070e	0.9883889
28	0x3f7e3724	0.9930289
29	0x3f810ad7	1.0081433
30	0x3f7c37f9	0.9852291
31	0x3f7ecb82	0.9952928
32	0x3f829e10	1.0204487
33	0x3f7ed347	0.99541134
34	0x3f7ec187	0.9951405
35	0x3f8258ad	1.0183312
36	0x3f819636	1.0123966
37	0x3f7ee8de	0.9957408
38	0x3f80c92f	1.0061396
39	0x3f80d0e5	1.006375
40	0x3f80f2c3	1.0074085
41	0x3f7dfd2e	0.99214447
42	0x3f8143ef	1.0098857
43	0x3f811fe8	1.0087862
44	0x3f7fe6d9	0.9996162
45	0x3f7de9cd	0.99184877
46	0x3f7bf9ff	0.9842834
47	0x3f82123e	1.0161817
48	0x3f818f31	1.0121824
49	0x3f81644a	1.0108731
50	0x3f80901b	1.0043977
51	0x3f7e71f4	0.9939263
52	0x3f7e5c42	0.99359524
53	0x3f80ae1d	1.0053135
54	0x3f7d0cd0	0.98847675
55	0x3f7f3944	0.99696755
56	0x3f7ff902	0.9998933
57	0x3f808782	1.0041354
58	0x3f8153db	1.0103716
59	0x3f7dda90	0.99161625
60	0x3f7ca68e	0.9869164
61	0x3f7e10c7	0.9924435
62	0x3f82837a	1.0196373
63	0x3f7ec730	0.99522686

mode_encoder.layers.0.norm1.b f4 [64]
0	0x39c3a096	0.00037312944
1	0xbca6100d	-0.020271325
2	0xbce50154	-0.027954735
3	0x3bb79316	0.005602251
4	0xbccc7008	-0.024955764
5	0xbc00fde8	-0.007873036
6	0x3cc88608	0.024477974
7	0x3cc0010c	0.023438
8	0x3a20553c	0.00061162165
9	0x3ad6c020	0.0016384162
10	0x3c865e82	0.016402487
11	0xbc9836a2	-0.018580738
12	0x3ca6d6cb	0.020366093
13	0x3c1750d8	0.009235583
14	0xbc90f06d	-0.017692769
15	0x3cc34053	0.023834383
16	0xbce2c037	-0.027679546
17	0x3caad10e	0.020851638
18	0x3cde505a	0.027137924
19	0xbc48ae3b	-0.012248571
20	0x3cb00734	0.02148781
21	0x3c1c14bc	0.009526428
22	0xbc8729ef	-0.016499488
23	0xbc46631a	-0.012108589
24	0xbc808350	-0.015687615
25	0xbc901e5b	-0.0175926
26	0x3cefbd95	0.029265204
27	0xbb40a483	-0.0029394932
28	0xbc36b453	-0.011151391
29	0xbcfb9648	-0.030711308
30	0x3bd02827	0.006352443
31	0x3af5a94e	0.0018742473
32	0xbd0221c6	-0.03177049
33	0xbaea2c77	-0.0017866035
34	0x3c2eeb04	0.010676149
35	0x3cb3e53c	0.021959893
36	0xbb59d616	-0.0033239177
37	0xbca3521f	-0.01993662
38	0x3cb7a757	0.022418661
39	0x3ccb6c22	0.024831835
40	0x3ccf11a2	0.025276963
41	0xbbdd5b3f	-0.006755262
42	0x3c804384	0.015657194
43	0x3c9b3eba	0.018950809
44	0x3cb63e09	0.022246378
45	0xbcee43b1	-0.029085012
46	0xbc1b2a08	-0.00947047
47	0x3c92bee9	0.017913299
48	0xbd0b11c5	-0.033952493
49	0x3be6e4c2	0.007046313
50	0xbcc60f63	-0.024177259
51	0x3ca9c74a	0.020724911
52	0xbc15f1a9	-0.009151855
53	0xbcc926f1	-0.024554702
54	0x3c19c409	0.009385117
55	0xbc1d96f4	-0.00961851
56	0xbc9bd39a	-0.019021798
57	0xbb84e66f	-0.00405579
58	0x3cdcda71	0.02695963
59	0xbadb8892	-0.0016749075
60	0x3ca8c555	0.020601908
61	0x3bcf95fd	0.0063350187
62	0x3c66a2f2	0.014076935
63	0x3c72c5a3	0.014817628

mode_encoder.layers.0.norm2.a f4 [64]
0	0x3f7cb651	0.9871569
1	0x3f7db7ca	0.99108565
2	0x3f826b15	1.0188929
3	0x3f7e1b4a	0.9926039
4	0x3f7e99c5	0.99453384
5	0x3f78ac19	0.971376
6	0x3f8245a8	1.0177507
7	0x3f806131	1.002966
8	0x3f7e16c8	0.9925351
9	0x3f7f1cf5	0.9965356
10	0x3f7e5d18	0.993608
11	0x3f7daa31	0.99087816
12	0x3f824ef7	1.0180348
13	0x3f7e601f	0.9936542
14	0x3f81caa8	1.0139971
15	0x3f825448	1.0181971
16	0x3f80cdeb	1.0062841
17	0x3f8153a3	1.0103649
18	0x3f81f70b	1.0153517
19	0x3f820c68	1.0160036
20	0x3f7cda68	0.9877076
21	0x3f7f7497	0.99787277
22	0x3f806f92	1.0034049
23	0x3f7bb77f	0.9832687
24	0x3f82c0cb	1.0215086
25	0x3f7c8b6a	0.9865023
26	0x3f81a888	1.0129557
27	0x3f7ad973	0.9798805
28	0x3f7df6b9	0.99204594
29	0x3f81671d	1.0109593
30	0x3f7f8e03	0.9982607
31	0x3f7ebf21	0.9951039
32	0x3f836c8d	1.0267502
33	0x3f81a9d4	1.0129952
34	0x3f7f86b8	0.9981494
35	0x3f81d644	1.0143514
36	0x3f815a96	1.010577
37	0x3f834db5	1.0258089
38	0x3f81676e	1.0109689
39	0x3f80e525	1.0069929
40	0x3f7ed0db	0.9953744
41	0x3f7e88bb	0.99427384
42	0x3f82373d	1.0173107
43	0x3f81f4ba	1.015281
44	0x3f7a9cbe	0.9789542
45	0x3f806b1f	1.0032691
46	0x3f7cfeb6	0.9882616
47	0x3f80e5cc	1.0070128
48	0x3f82ee52	1.022898
49	0x3f832805	1.0246588
50	0x3f81ae28	1.0131273
51	0x3f80d40f	1.0064715
52	0x3f7e9a98	0.9945464
53	0x3f80a87d	1.0051419
54	0x3f7df1c2	0.9919702
55	0x3f7cecd7	0.9879889
56	0x3f7d3453	0.98907965
57	0x3f80861b	1.0040926
58	0x3f82427c	1.017654
59	0x3f7d8ef6	0.99046266
60	0x3f7d145f	0.9885921
61	0x3f7da619	0.9908157
62	0x3f7fdf5d	0.999502
63	0x3f7dc94e	0.9913529

mode_encoder.layers.0.norm2.b f4 [64]
0	0x3b4becc8	0.0031116474
1	0xbc4f14e3	-0.012639257
2	0xbc4a2c4f	-0.012339666
3	0x3acc2b06	0.0015576787
4	0xbc9ca00f	-0.01911929
5	0x3c4a8603	0.012361052
6	0x3c9858be	0.018597003
7	0x3c610998	0.0137351975
8	0xbb729261	-0.0037013518
9	0xbbf0c703	-0.007347943
10	0x3c8e8e44	0.017401822
11	0xbc527e6a	-0.012847522
12	0x3c869035	0.016426185
13	0x3c602e9a	0.013682986
14	0xbc835e33	-0.016036129
15	0x3c9727ff	0.018451689
16	0xbcc49d7a	-0.024000872
17	0x3c838324	0.016053744
18	0x3c45e48b	0.012078415
19	0xbc91ee8f	-0.017813949
20	0x3cb62dfc	0.022238724
21	0xbaea2a77	-0.0017865439
22	0xbc84b3f6	-0.016199093
23	0xbb3f3782	-0.0029177372
24	0xbc6c50f4	-0.014423598
25	0xbbd63f39	-0.0065382984
26	0x3cd16eae	0.025565472
27	0xb899d72c	-7.3356874e-05
28	0xbc341881	-0.01099217
29	0xbcc86449	-0.024461882
30	0xbc8daded	-0.017294848
31	0xbaad5167	-0.0013223112
32	0xbcb6f4d5	-0.022333542
33	0xbb7dbafc	-0.0038716188
34	0x3c173645	0.009229247
35	0xbc0aa330	-0.0084617585
36	0xbb9aacc9	-0.0047203046
37	0xbcc082f3	-0.023499941
38	0x3cd3a77e	0.025836702
39	0x3c797b07	0.015227086
40	0xba44cca8	-0.0007507303
41	0xba516e3d	-0.0007989144
42	0x3bdf0416	0.006805907
43	0x3c794dd1	0.015216307
44	0x3c11f448	0.008908339
45	0xbca2f6ed	-0.019893134
46	0xbc86c20d	-0.016449952
47	0x3c03806c	0.008026224
48	0xbd00a926	-0.031411313
49	0xb99efa32	-0.00030322518
50	0xbc9f815a	-0.01947086
51	0x3cb5686f	0.022144524
52	0xbbf0180e	-0.0073270863
53	0xbc6b503f	-0.014362394
54	0x3b92976b	0.004473617
55	0xbba9f07c	-0.0051861387
56	0xbc2f6f0b	-0.010707627
57	0x3c3866e3	0.011254999
58	0x3cb6ba62	0.022305671
59	0x3c0438d8	0.008070193
60	0x3b146845	0.0022645157
61	0x3aee0884	0.0018160497
62	0x3c545afd	0.012961146
63	0x3ab21bd3	0.0013588615
